saved_models/cnn_model_1846944662160.onnx (onnx, 1075 bytes, 4 tensors)

1.weight f4 [4, 4]
000000 80 6d 8e bb e0 d8 1b 3e 00 3c d6 3c 58 5f 3e be
       -0.0043465495 0.1521945 0.026151657 -0.18591058
000010 fc 66 80 3e 20 60 0d bd c0 90 86 bc 64 55 66 be
       0.2507857 -0.0345155 -0.016426444 -0.22493511
000020 c2 dc 9d be c0 bc 49 3c 0a a2 ca 3e bc 61 6f 3e
       -0.30832487 0.012313068 0.3957675 0.23377126
000030 f2 20 dc 3e b8 a0 ef 3e e8 5d 60 be 26 14 d4 3e
       0.42993885 0.46802306 -0.21910822 0.41421622

1.bias f4 [4]
000000 d8 0e dc 3d 84 00 19 be 38 c8 49 be 82 da ff 3e
       0.10745019 -0.14941603 -0.19705284 0.49971396

3.weight f4 [26, 4]
000000 8e 61 c1 3e 9a 06 db 3e 06 ae c1 3e c6 e7 99 be
       0.3776974 0.42778474 0.37828082 -0.30059642
000010 12 53 82 be d4 c2 2d 3e 90 64 9a 3d f4 f2 bd be
       -0.25454003 0.16968852 0.07538712 -0.3709942
000020 78 df b2 be b0 1f 8f bd 96 1e ff be 02 fb bf be
       -0.34936118 -0.06988466 -0.49828023 -0.3749619
000030 10 ca 91 be 3c ce 29 3e ca a1 80 be 34 ee fd be
       -0.28474474 0.16582578 -0.25123435 -0.49595797
000040 b4 2e 00 be ee 04 93 3e 2c 76 1a 3e 5c ba bf be
       -0.12517816 0.287147 0.15084141 -0.37446868
000050 74 e1 ea 3e 40 35 ca bc 80 5f fb be 40 da 2c bc
       0.45875132 -0.024683595 -0.49096298 -0.010550082
000060 20 ab a4 3e a0 02 8b be f4 15 af 3e 30 6e ac 3d
       0.32161808 -0.2715044 0.34196436 0.08419454
000070 84 c7 98 be 50 9a 03 3e a8 67 2e be c4 c9 69 3e
       -0.29839718 0.12851834 -0.17031729 0.22830874
000080 30 ad de 3e 68 a4 3e 3e 24 6b 8c be 42 86 d4 3e
       0.43491507 0.18617404 -0.27425492 0.4150868
000090 90 b3 fd 3e bc 50 dd 3e 2e 15 fe 3e 38 2b e0 bd
       0.49551058 0.43225658 0.49625534 -0.10945743
0000a0 ba 1e c3 be 04 fe 53 3e 04 08 f5 be 3c e9 61 3e
       -0.3810938 0.20702368 -0.47857678 0.22061628
0000b0 98 c8 9e 3e ee a1 be 3e d0 53 52 3d c8 1a ab be
       0.31012416 0.37232918 0.05134946 -0.3341887
0000c0 78 8e 4e be f2 94 9f 3e b4 ac 8a be 60 71 2e 3d
       -0.20171535 0.31168324 -0.27084887 0.04258859
0000d0 74 c6 86 be d0 43 96 3d 4c e2 c2 3e 48 04 de 3d
       -0.26323283 0.07337153 0.38063276 0.1084066
0000e0 cc 7d 75 be 80 8c a3 3b b8 4c 8d 3d fa 44 83 3e
       -0.23973769 0.004991114 0.068993986 0.25638562
0000f0 d0 a6 79 be 78 40 89 bd 30 19 76 be 50 5d b4 3e
       -0.2438004 -0.067017496 -0.24033046 0.35227442
000100 ea 26 cc be f6 53 e4 be 1e 3c 83 be b8 95 de 3d
       -0.3987344 -0.44595307 -0.25631803 0.108684
000110 50 c7 28 3d d0 c3 b4 be 74 84 06 be 76 82 a1 3e
       0.041205704 -0.35305643 -0.13136464 0.31544846
000120 24 0f 53 be c2 b6 be be 80 15 c3 3e 70 b0 3e 3d
       -0.20611244 -0.37248808 0.3810234 0.046554983
000130 60 47 fc be 86 f5 b7 be f4 ba c8 3e fc 1d eb 3e
       -0.49273205 -0.35929507 0.39205134 0.45921314
000140 1a ed ed 3e 0c 5a e8 be 3c cf 96 3e 58 5c 63 be
       0.46469957 -0.453812 0.29454982 -0.22203195
000150 2a cd ba 3e ec c8 21 3e 60 0b 6e 3e f0 51 19 3d
       0.36484653 0.15799302 0.23246527 0.037431657
000160 9c ac b1 3e 4c 00 0b 3e 76 7e 8c 3e 5c 24 89 be
       0.34702003 0.13574332 0.27440232 -0.26785553
000170 06 74 90 be c0 e4 e2 3d f6 af b2 be 9a 3d ac be
       -0.2821352 0.11078787 -0.34899873 -0.33640748
000180 84 c0 0b be f0 db b5 3e 10 7b bc be 8c e4 d3 be
       -0.13647658 0.35519361 -0.3681264 -0.41385305
000190 ec b5 ea 3e f0 ed 61 bd 5a f1 92 be f0 66 f0 bd
       0.4584192 -0.055158556 -0.28699762 -0.11738384

3.bias f4 [26]
000000 00 eb bc 3b 0e 47 ed be 14 9b 65 be 98 2a 7a be
       0.005765319 -0.46343273 -0.22422439 -0.2443031
000010 70 82 fa 3e 70 73 08 be d4 45 c8 be 50 6c 60 3e
       0.4892764 -0.13325286 -0.39115775 0.21916318
000020 90 93 3c be 60 4b 74 be 00 ce b4 bc 80 30 c2 3c
       -0.18415666 -0.23856878 -0.022070885 0.023704767
000030 74 ae fc 3e cc 0a 30 be 24 0a 85 be e4 8a df 3e
       0.49351847 -0.17191619 -0.259843 0.43660653
000040 52 e8 e4 3e 24 73 73 3e 18 26 f8 3d 30 27 89 be
       0.44708496 0.23774391 0.12116641 -0.2678771
000050 7e 74 f7 be 88 39 a8 3d 62 79 ad be 18 69 9f 3e
       -0.48331064 0.08214098 -0.3388167 0.31134868
000060 28 c1 ab 3e 80 73 8b 3e
       0.33545804 0.27236557
