fnn.onnx (onnx, 318563 bytes, 4 tensors)

0.weight f4 [100, 784]
000000 51 60 ef bc 6e c3 da 3a a5 2d e2 3c 4a 9c 8e 3b
       -0.029220732 0.0016690323 0.027609656 0.004352127
000010 01 78 79 39 11 9b c4 bc 1a 78 c1 3c 74 1b 03 3d
       0.00023791195 -0.023999723 0.02361684 0.032008603
000020 0c 4c fa 3c b3 fd d2 bc c5 14 7f bc 81 38 e7 3c
       0.03055384 -0.025755739 -0.015568917 0.028225185
000030 30 82 85 bc 4e 99 51 3c 5c 17 53 bb 35 30 c9 3c
       -0.01629743 0.012792898 -0.0032209968 0.02455912
000040 ca 7b 94 3c 1e 16 f0 3c ac 52 85 bc 43 15 e0 bc
       0.018125433 0.029307421 -0.016274773 -0.027353888
000050 bc 2d a7 3c ea 3f 14 3c 1c ac ea bb 4a 1e a0 bb
       0.02040755 0.009048441 -0.0071616303 -0.0048864232
000060 81 d0 66 bb 2e b6 a9 bb 8e e0 f9 bc ea 32 30 3c
       -0.0035219493 -0.005179188 -0.030502584 0.010754326
000070 e5 d6 ea 3b 67 ff 00 3d 5e 74 ad 3c 25 79 6e 39
       0.0071667307 0.03149357 0.021173652 0.00022742579
000080 73 fc 65 3c 18 00 67 3c 6e ee 8a ba 0a 44 5a 3c
       0.014037239 0.014099143 -0.0010599622 0.013321886
000090 6e fe bb ba 1c 85 ad bc b7 0f 48 ba cc 1c 8c bc
       -0.0014342794 -0.021181636 -0.0007631736 -0.017103575
0000a0 03 eb dd bc 85 48 a2 bc 13 fd b6 3c 6e ac 8c bb
       -0.027089601 -0.01980997 0.022337472 -0.004293016
0000b0 fc cd 57 bc 8a f7 7a 3c ea 18 91 bc 5e 2b aa 3c
       -0.013171669 0.015317807 -0.017712075 0.020772632
0000c0 6e 34 e4 3b b1 ab af bc 4a c6 b2 3b 2a 44 cb bc
       0.006964258 -0.021444174 0.005455767 -0.024812777
0000d0 7b 4f 00 3d 57 bf ad 3c e1 89 e5 bc fc 0c 69 3c
       0.0313258 0.021209402 -0.028019847 0.014224287
0000e0 d7 f7 57 3c 6e 27 43 ba 55 01 91 bc 93 8c 4e ba
       0.013181648 -0.0007444535 -0.01770083 -0.00078792236
0000f0 25 c1 f5 bb 25 a5 b6 bc dc 3c 11 bd 1e 42 98 bc
       -0.0074998313 -0.022295544 -0.03545843 -0.018586215
000100 4a d2 5c bc 9a bc 9c bc 61 b5 ff bc d3 bc fe bb
       -0.013477871 -0.019132901 -0.031214418 -0.0077739744
000110 53 c5 08 3d dc 76 5c 3b 85 93 be bc b8 b6 de ba
       0.033391308 0.0033640182 -0.023263702 -0.001699171
000120 ee 08 c2 bc b6 d8 08 bd 53 81 e7 bc 2a 0c 0c bd
       -0.023685899 -0.033409797 -0.028259909 -0.034191288
000130 b8 3c fe ba 17 9c da 3c 7c 1e 93 3c f7 f6 8f 3c
       -0.0019396758 0.026685758 0.017958872 0.017573817
000140 5c 29 d5 bb 37 2a 39 3b d7 a2 0d 3c a5 bc b8 bb
       -0.0065051746 0.0028253922 0.008644781 -0.0056377226
000150 e3 55 00 3d ea 0f c3 bc ee dc 4c 3b 25 bf db 3b
       0.031331908 -0.0238113 0.0031259614 0.006706136
000160 ec a8 c5 bc 1d a6 0d 3d fc 3c 83 3c 93 40 8c ba
       -0.0241284 0.034582246 0.01602029 -0.0010700397
000170 61 e1 3d bc 5c de ac bc 73 a5 ee bc 98 43 6c bc
       -0.011589379 -0.021102123 -0.029131627 -0.0144204125
000180 4a 8e 08 bd c5 8c 73 bc 53 43 85 bb e7 8f 99 3c
       -0.033338822 -0.014865105 -0.0040668636 0.018745376
000190 15 67 c2 bc d2 02 0e 3d 6e d4 c7 3a 6e be 97 3b
       -0.023730794 0.03467066 0.0015245804 0.0046308553
0001a0 1c 09 99 bc 00 52 9b 3a f0 d0 09 3d 93 07 cf 3c
       -0.018681102 0.001185 0.033646524 0.025272166
0001b0 5c a6 38 3c f3 c5 8e 3c 47 43 07 bd e8 13 e2 3c
       0.011270132 0.017428374 -0.033023145 0.027597383
0001c0 ca 4d 3f 3b 25 e7 c8 bc a1 d1 f3 3c 41 42 d6 bc
       0.0029190653 -0.02452428 0.029763045 -0.02615464
0001d0 81 10 d5 3c 41 f0 db 3c 7c 2f 70 bc ce 59 cf 3c
       0.026008846 0.02684796 -0.014659759 0.025311377
0001e0 cd 42 01 3d 5c 91 b5 bc 6e 5d 00 3a 60 27 1c 3c
       0.031557847 -0.02216404 0.00048967346 0.009530872
0001f0 81 9d 62 bc a5 62 8c bb ea 03 ad 3c 33 0d 73 3c
       -0.013831497 -0.0042842203 0.02112003 0.01483469
000200 33 9f d6 bc d3 3a 8e 3c f3 a7 61 3c 7a da df 3c
       -0.026198959 0.017362034 0.013772952 0.027325857
000210 ee c9 b9 3c 23 96 b1 3c 81 3d ab bc ec 96 fc 3c
       0.022679295 0.021678036 -0.02090335 0.030833684
000220 6e 7e ea 3c 13 45 ed bb 5c a9 ea bb bc db b9 3c
       0.02862474 -0.0072409003 -0.0071613025 0.022687785
000230 e7 62 86 3c 37 4d 17 3c 05 54 51 3c fc 33 02 bc
       0.016404582 0.009234718 0.0127763795 -0.007946964
000240 bc 96 85 3c dc 32 b9 3a bc 38 95 3c 6e e9 6e ba
       0.016307227 0.0014129537 0.01821553 -0.0009113763
000250 6e 6f e5 bb 5e 47 8b 3c 05 07 ac bc 45 f1 3f bc
       -0.007001809 0.017001804 -0.02099944 -0.011715238
000260 c5 74 a8 3c 6c 7c a7 3c 60 51 0f bd e5 a4 b3 bc
       0.020563493 0.020445071 -0.034989715 -0.021929214
000270 33 44 fb bc c8 8e ec bc f3 6d 1a 3c 6a 83 32 3c
       -0.030672168 -0.028876677 0.009425628 0.010895589
000280 a5 20 c8 bb cb ca 0a 3d 38 f0 7d 3b 2e 0c aa bc
       -0.006107407 0.033884805 0.0038747918 -0.02075776
000290 0e 97 30 3c c3 20 c6 bc ae 7f a9 bb 0a 33 25 3c
       0.010778202 -0.024185544 -0.0051726913 0.010082969
0002a0 21 20 67 3c 06 12 01 3d e1 bf 43 bc a7 bd 07 3d
       0.014106781 0.03151133 -0.011947603 0.03313985
0002b0 5e 23 e3 bc ae d2 53 3c 9c d4 d4 bc 93 3c 2b 39
       -0.027726825 0.012928648 -0.025980286 0.00016330396
0002c0 b3 b0 85 bc 5a f6 b2 bc a3 6b da bc f5 63 9a 3c
       -0.016319608 -0.021845985 -0.026662653 0.018846491
0002d0 20 d2 a2 3c 2e 53 d4 bb 93 29 e9 bb 45 c0 d8 3c
       0.019875586 -0.0064796424 -0.0071155517 0.026458869
0002e0 d7 d1 88 bc de fd 01 bd a1 e0 e1 bc 77 cc a0 bc
       -0.016701622 -0.031736247 -0.027572932 -0.019628746
0002f0 13 d5 da 3b 00 a8 a4 ba 17 12 c4 bc ba 94 95 bc
       0.0066782325 -0.0012562275 -0.023934407 -0.018259395
000300 67 1b b6 3c 05 09 a9 bc 0a c5 04 bd 01 25 f9 ba
       0.022229863 -0.020634184 -0.032414474 -0.001900822
000310 7c 44 cf bc be 66 82 bc d0 74 94 bc 4a 86 8b ba
       -0.02530121 -0.015918132 -0.018122107 -0.001064488
000320 f4 c5 05 3d 8a 06 8e bc ce 08 0d bc f5 29 9f bc
       0.032659486 -0.017337102 -0.008608056 -0.019429186
000330 5d d8 09 bd 7c 35 01 3c 83 b3 a8 3c 05 38 e2 3c
       -0.033653606 0.007886287 0.02059341 0.027614603
000340 5d 31 05 3d b5 80 88 bc a0 e7 86 bc 5c 11 37 3b
       0.03251778 -0.016662935 -0.01646787 0.002793393
000350 4a 1f 91 bc e1 d2 d7 3c d8 6b 5f bc 4a 9e 65 ba
       -0.017715115 0.026345672 -0.013636552 -0.00087592436
000360 45 5e 0c 3c e7 74 d9 bc dc 8d fd 3b 28 86 e6 3c
       0.0085673975 -0.026545001 0.007737858 0.028140143
000370 85 ff e1 bc ba 4c c7 bc 25 18 19 bc 57 0d 3c 3c
       -0.027587662 -0.024328578 -0.009344135 0.01147779
000380 15 fe 8a 3c ee 73 03 bc f7 24 23 3c 8a c1 12 3c
       0.016966859 -0.008023245 0.009957544 0.008957276
000390 10 ad 96 bc da 85 9c 3c c8 56 e7 3c 0a df 07 bd
       -0.01839307 0.019106794 0.028239623 -0.03317169
0003a0 a5 10 f1 3c f3 b5 66 3c 87 2b bd bc 65 6e 73 3c
       0.029426882 0.014081466 -0.023092045 0.014857863
0003b0 b7 61 1f 3b b7 7e 07 3b 8a 4d a1 bc 4a 8c 83 bc
       0.0024319717 0.0020674893 -0.019690294 -0.016058106
0003c0 1a f6 af 3c 0e 18 46 bc dc 5a b5 3a f0 4c a5 3c
       0.021479655 -0.012090696 0.0013836282 0.020178288
0003d0 ec a7 c2 3c 83 c0 89 3c 53 fa e6 bc 08 96 f2 3c
       0.023761712 0.01681543 -0.028195536 0.029612556
0003e0 65 67 c3 3b 65 eb fc 3c 2a d4 b4 3c fa 7d 06 bd
       0.0059632533 0.030873964 0.022073824 -0.032834984
0003f0 23 53 0e 3d 81 07 50 bb 05 4e 76 bc d3 7c b9 bb
       0.034747254 -0.0031742754 -0.01503325 -0.005660632

0.bias f4 [100]
000000 f7 9c 23 3c c3 75 db 3c 63 c4 90 bc d5 19 84 bc
       0.009986154 0.026789552 -0.01767177 -0.016125599
000010 83 f1 b5 3c dc a2 43 bb 6b cc 09 bd 4a 13 e4 3a
       0.022209888 -0.002985171 -0.033642214 0.0017400768
000020 f5 f6 d8 3c 8e 50 61 bc ee 9b c6 3c 3e 49 d1 3c
       0.026484946 -0.013752116 0.024244275 0.02554762
000030 e5 43 aa bb 37 ce ce 3b 7c 11 d6 bc 5c fb 82 3b
       -0.005196082 0.006311204 -0.026131384 0.0039972495
000040 fa e2 84 3c 1c c7 9f bb 4a 62 46 39 9c 02 b5 3c
       0.016221512 -0.0048760306 0.00018919367 0.02209597
000050 b8 6e e2 3b 95 fc aa bc b3 d4 3b bc 13 c6 89 bc
       0.0069101714 -0.020872394 -0.011464286 -0.016818082
000060 8c a7 ca bc 2e cf 9d bc 1c c4 07 3c 61 0c c1 3c
       -0.024738096 -0.01926383 0.008286502 0.023565473
000070 6a b6 9c 3c 2e be fe 3c 5c 9a 91 bb b7 af bf 3a
       0.01912995 0.031096544 -0.00444345 0.0014624511
000080 b3 18 c6 bc b7 07 1b 3b b7 26 99 bc 13 77 4c bb
       -0.0241817 0.0023655721 -0.018695218 -0.0031198903
000090 c1 66 2f bc 2a f6 04 bd 2e c5 2e bc 15 d6 f5 bc
       -0.010705651 -0.032461323 -0.0106671285 -0.030009309
0000a0 dc dd a8 3b 2c bd ac bc e5 da cb bb e1 83 e3 bc
       0.005153401 -0.021086298 -0.0062211626 -0.027772846
0000b0 aa 7a f4 bc d3 2b 6b bc f7 c9 a4 3c d3 2a b6 3b
       -0.029843647 -0.01435371 0.020115836 0.0055593043
0000c0 53 bd 85 3c 7c bf 71 3c 4a c0 7e bb bb ff 04 bd
       0.016325628 0.014755126 -0.0038871937 -0.032470446
0000d0 a1 7c 7e 3c d1 f7 ad 3c 04 8b 0c 3d 25 bf 88 3b
       0.0155326435 0.021236332 0.034312263 0.004173177
0000e0 01 07 73 bc 2c 6d 08 bd aa eb a6 3c 65 c6 34 3c
       -0.014833213 -0.03330724 0.020376045 0.011033629
0000f0 6e 19 17 ba b3 4c 0b 3d e3 46 86 3c 53 e9 02 3c
       -0.0005763982 0.034008693 0.016391223 0.007990199
000100 6e fe d8 3b 25 80 1d bb 25 b1 c5 bb 6e fd c6 bc
       0.0066221273 -0.002403268 -0.00603308 -0.024290767
000110 93 9e 53 3a 2c 10 b3 bc a1 52 48 bc 55 02 f3 bc
       0.00080726406 -0.021858297 -0.0122267315 -0.029664198
000120 6c 96 c4 3c ae e8 e4 bb 8c 19 97 bc a5 c3 c1 bb
       0.023997508 -0.0069857454 -0.018444799 -0.005913215
000130 3c e2 93 3c a5 1e f1 3c 47 74 9e bc 28 6a f6 3c
       0.018052213 0.029433558 -0.019342555 0.030079916
000140 a5 bd 94 3b 25 00 b1 3b 45 4b 2c 3c 38 60 ef bb
       0.004539209 0.0054016286 0.0105159925 -0.0073051713
000150 53 8c 9a bb 35 eb 0b bd 77 41 99 3b 03 5d b8 3c
       -0.004716435 -0.034159858 0.0046769935 0.022505289
000160 ee 64 14 bc a0 58 1e bc 6e 7b 06 3d dc ab a7 bc
       -0.009057267 -0.0096646845 0.032832555 -0.020467691
000170 aa 13 60 3c d8 a9 7d bc 38 71 63 bc ca ee 19 bb
       0.013676563 -0.015482388 -0.013881974 -0.0023488277
000180 b7 d3 55 bb dc 8d 90 3c b7 97 9b bc 5c fb fd 3b
       -0.0032627413 0.017645769 -0.018993242 0.0077509116

2.weight f4 [10, 100]
000000 d0 67 ad 3d 4d 4b 67 bc 5d e9 7b 3d f0 d7 97 3d
       0.08467066 -0.014117074 0.06150185 0.07414234
000010 4a 25 09 3d 7d 42 60 3d 87 00 83 bd 38 be 94 3d
       0.033482827 0.05475091 -0.06396585 0.07262844
000020 83 a9 9c 3d 7a 34 09 bd 7f af b9 bd dd 58 78 3d
       0.07649519 -0.03349731 -0.09066676 0.06063162
000030 33 4f bf 3a 50 cb c6 3d 08 ac cb 3d da 17 41 3c
       0.0014595747 0.097067475 0.09944922 0.011785472
000040 e7 f9 3a 3d 9a 4f 65 bc d3 23 6f bd 73 8b 45 bd
       0.04564848 -0.013996029 -0.058383774 -0.048228692
000050 1d 28 a9 bd 0f dc b2 3d 8d 95 4e 3d 50 6e 30 3d
       -0.08259604 0.08733379 0.05043559 0.043073952
000060 70 cf 06 bd 78 71 aa 3d 6a 19 6a bd 73 8a 80 bc
       -0.03291267 0.08322424 -0.057153143 -0.015691018
000070 d3 7e 93 bd 53 30 52 3d 37 70 bb 3d 73 e1 cd 3c
       -0.07201924 0.051315617 0.09152263 0.025131917
000080 a7 57 b8 bd 5a eb 38 bd 1a 81 21 bd 87 1a 2d bd
       -0.09001093 -0.045146324 -0.03942976 -0.042261627
000090 e3 6c 9f 3d 2d c9 f9 bc d3 4e f6 bc 27 26 bd 3c
       0.0778444 -0.030491436 -0.030066883 0.023089482
0000a0 33 bd 23 bc 32 93 8d 3d 0d a3 8a 3d 33 ec 3f bc
       -0.009993839 0.06912841 0.06769381 -0.011714029
0000b0 6d 9a d4 3c fa 26 d5 3c 90 28 12 bd 98 c5 88 3d
       0.025952542 0.026019562 -0.035683215 0.06678313
0000c0 ea 18 2b 3d 6a 48 1c 3d ff 30 b0 3d c2 06 bc bd
       0.041771807 0.038154997 0.08603095 -0.091809765
0000d0 6f e8 b3 3d cd 0f ff bb 07 56 38 3d 88 72 89 bd
       0.087845676 -0.007783866 0.045003917 -0.06711298
0000e0 e7 0e f7 3c 58 8c bc bd 93 00 49 bd fa eb 98 3d
       0.030158473 -0.09206456 -0.049072813 0.07466884
0000f0 0b 34 bf 3d 3a 53 2f 3d fa a7 e9 3c ad 02 47 3d
       0.09336098 0.04280398 0.02852248 0.048586536
000100 73 de c7 3c 03 34 36 bd 73 b5 6d 3d 32 00 80 bd
       0.024398064 -0.044483196 0.05803437 -0.06250037
000110 00 fa fb 3b 20 0e 22 3d d5 27 93 bd ca 90 98 bd
       0.0076897144 0.039564252 -0.07185332 -0.07449491
000120 9a bf 9f bd ba f6 d8 3c f3 81 b7 bd 00 66 c1 3c
       -0.07800217 0.026484836 -0.08960333 0.023608208
000130 f0 c5 1d 3d 8d 59 ec bc 6d 02 5b 3d aa ee b4 bd
       0.038518846 -0.028851295 0.05346911 -0.08834584
000140 00 96 a9 bb ad 74 32 bd 4d 11 5e bc 47 fd 92 bc
       -0.005175352 -0.043568302 -0.0135539295 -0.017943038
000150 d7 06 09 bd ea 78 7c bd cd b7 0c 3d 00 a0 ac bd
       -0.03345379 -0.06163875 0.034354974 -0.08428955
000160 1a 4f 71 bc b7 a7 1b bd 00 bd 11 3d cb 6d ab bd
       -0.014728332 -0.038001742 0.035580635 -0.08370551
000170 a3 58 96 bd 87 ee 89 bc 27 9a a8 3c 4d 5b d1 bb
       -0.07341125 -0.016837372 0.020581318 -0.0063890577
000180 63 de c4 bd 88 68 80 3d 00 10 81 3b 5a 0f b8 bc
       -0.096127294 0.06269938 0.003938675 -0.022468258
000190 cd 38 48 bb 60 02 96 bc ea 14 92 bd d0 ea 18 bd
       -0.0030551434 -0.01831168 -0.07132895 -0.03733331
0001a0 9a 22 e9 3b 8a c8 07 bd bf bd 8f 3d e5 87 ca 3d
       0.0071147205 -0.033150233 0.07018613 0.09889201
0001b0 4a cc 6e bd c0 08 bd bc ba bd 02 3d da 50 fe 3c
       -0.058300294 -0.023075461 0.03191922 0.031044412
0001c0 f3 75 51 bc 8d f3 06 bd a7 56 84 3d 87 77 85 3c
       -0.012784469 -0.032947112 0.0646184 0.016292347
0001d0 ad b8 6d bd 67 99 f8 bb 4f 4a 9e 3d a0 0f cb bc
       -0.05803745 -0.0075866464 0.07729017 -0.024787724
0001e0 b3 90 a1 bc 53 e6 47 3d 20 d3 28 3d 93 c7 41 3d
       -0.019722318 0.04880364 0.04121697 0.04730947
0001f0 30 74 7e bd cd 0c 6a 3b 7a 65 88 bc 4d 89 23 3d
       -0.062122524 0.0035713196 -0.01664995 0.039925862
000200 8d e6 40 3c 1a 9c d2 bc 80 24 ad 3c 58 ee 84 3d
       0.011773718 -0.0257092 0.021135569 0.06490773
000210 ef b4 82 3d c7 8f 07 bd 47 7b 80 bc 3f 91 8d 3d
       0.063821666 -0.0330961 -0.015683783 0.06912469
000220 ef 51 a9 bd 7a 81 bb 3d d0 99 32 3d 7a 6f 8b 3c
       -0.08267581 0.09155555 0.04360372 0.01702093
000230 a7 81 a1 bc 5a 7b e0 bc e7 21 fd bc 6d 45 ff bc
       -0.019715143 -0.027402569 -0.030899955 -0.031161034
000240 2d ed 1e 3d bd 44 5e bd c3 3f 8a 3d 37 7a 84 3d
       0.038800407 -0.054264773 0.06750443 0.06468623
000250 ed e2 ab bd f0 8e 6b 3d b3 e3 93 bc 3a 55 68 bd
       -0.08392892 0.057509363 -0.018052911 -0.056721903
000260 6a de 4a 3d 23 f3 43 bd 9d 37 ba 3d 0a 99 ca 3d
       0.049528517 -0.047839295 0.09092639 0.09892471
000270 00 70 33 bd 8d a2 90 bd 98 10 a3 bd 77 8a bd 3d
       -0.043807983 -0.07062254 -0.079621494 0.09254926
000280 00 d2 a0 bb 12 75 93 3d 73 4f bc bc 62 ef 8d 3d
       -0.0049078465 0.07200064 -0.022987103 0.06930424
000290 e7 c7 50 3d 00 76 44 3d 13 5f c8 3d 1a bb 6f bd
       0.05097189 0.047964096 0.09783759 -0.058528043
0002a0 50 7f 51 3d e0 3a 58 3d e7 f1 88 3b a7 36 4d bc
       0.051146805 0.052790523 0.0041792276 -0.012525237
0002b0 b7 fa 81 bd 3b 6a 8f 3d b7 6e 78 3d 80 25 78 3d
       -0.06346648 0.07002684 0.06065246 0.060582638
0002c0 05 84 8c 3d ca 6e 1c 3d 93 12 a4 3d 05 f9 bd bd
       0.06861118 0.038191594 0.08011355 -0.09276012
0002d0 c0 e6 9d 3c 20 a4 3e bd 0b 1b 8c bd c8 9e c1 3d
       0.01927507 -0.04654324 -0.068410955 0.09454113
0002e0 2d 04 af bc 7f d6 a9 3d 42 19 89 bd 5d f5 26 bd
       -0.021364296 0.08292865 -0.06694271 -0.04076134
0002f0 57 2f 90 bd a7 89 b7 bc 6a a8 01 bd 38 74 a7 3d
       -0.07040279 -0.022404505 -0.031654753 0.08176464
000300 10 04 c8 bd a3 bb 57 3d 87 49 61 bd 50 20 a8 bd
       -0.097664 0.05266918 -0.05500176 -0.08209288
000310 0d 2d 8a 3d 4d 95 44 3d f0 cf b0 bd 07 3a bc 3c
       0.06746874 0.047993947 -0.08633411 0.022976888
000320 20 10 9b 3d 9d e7 72 3d 07 ac 0b 3d c8 98 a9 3d
       0.07571435 0.059302915 0.034099605 0.08281094
000330 47 c0 a6 3d 83 6e 79 3d 80 d6 18 bd cd 1c f8 b9
       0.08142143 0.060896408 -0.03731394 -0.00047323704
000340 fa 9a 5a bd a8 5e 98 3d e7 d1 1e 3d 6f 64 b8 3d
       -0.053370453 0.07439929 0.038774397 0.09003531
000350 d0 0b c8 bd 87 6b 6d bd cd 23 7b 3c 2d 4d 40 bd
       -0.09767878 -0.057963874 0.01532836 -0.0469486
000360 33 70 ce 3c 8d 38 88 bc 8d b2 0b 3d 73 0b 87 3d
       0.025199985 -0.016628528 0.034105826 0.06593981
000370 17 06 3b 3d a7 76 09 3d aa 61 8c 3d 23 fc 32 3d
       0.045660105 0.03356042 0.068545654 0.043697488
000380 5d 7d 66 3d e7 2a 3b bd 18 b2 b5 bd 80 f4 37 3c
       0.0562719 -0.04569521 -0.08871859 0.011227727
000390 8d e5 a9 bc a2 6b a5 bd 50 55 93 bd b7 37 5c 3d
       -0.020739341 -0.0807717 -0.071940064 0.05376407
0003a0 da 78 6a 3d b3 12 17 3c 60 0a e6 bc 47 2c 90 3d
       0.05724416 0.009220767 -0.028081119 0.07039695
0003b0 00 a8 dc bb 40 82 73 bc 47 cc 92 bd c7 45 6b 3d
       -0.0067338943 -0.014862597 -0.07167869 0.05743959
0003c0 0a 9f 87 3d ba de 99 3c 80 00 3c 3c cf a2 83 3d
       0.06622131 0.018782962 0.011474729 0.06427538
0003d0 da 18 93 3d 60 8a 56 3d 2f 34 9c 3d a7 47 3b 3c
       0.071824744 0.05237806 0.07627141 0.0114306575
0003e0 23 73 32 bd 60 ea c9 bc 30 ce 54 3d bd 0b 34 bd
       -0.043566834 -0.024647892 0.05195445 -0.043956507
0003f0 1a 7a 29 3d 4d 67 9b 3b 1d 9c 9f 3d 00 f0 cf 39
       0.04137621 0.004742539 0.07793448 0.0003966093

2.bias f4 [10]
000000 93 91 b9 3d 4d 2b c0 bd 38 f2 8f 3d c0 f0 ed 3c
       0.09060969 -0.09383259 0.070286214 0.029045463
000010 5a 41 5c 3c 40 b1 3f 3d 8b 1d bb 3d e7 0e 29 bc
       0.013443315 0.0467999 0.09136494 -0.010318494
000020 0d 12 d8 bc 00 c4 fb 3c
       -0.026375795 0.030733109
